fastapi/outputs/checkpoint_1.pth (torch, 425367 bytes, 18 tensors)

weight f4 [100, 3, 3, 3]
0.066006295 -0.0029962945 -0.054867968 -0.04863688 0.0031104207 0.047640447 -0.04120418 0.029008409
0.22119929 0.153182 -0.013802295 0.13941394 0.04915375 0.15071087 -0.14218244 0.08065366
0.0057734856 0.06706698 -0.13330516 -0.12475785 -0.01599729 -0.06760654 -0.21119067 -0.03822963
-0.19119489 0.04525647 0.037214346 0.21184053 0.05006032 0.12141771 -0.017521765 -0.013431132
-0.023276122 -0.16384652 -0.06712809 -0.051766448 -0.14864355 0.013933601 -0.09985427 0.16405445
0.04292753 0.073126875 0.06598346 -0.023047248 0.031068899 0.08319693 0.13962516 -0.093518265
-0.16558746 -0.118728645 0.14603645 -0.1985647 -0.21041004 -0.10251307 -0.31723836 -0.45220476
-0.29292095 -0.42135864 -0.5373055 -0.37439176 -0.60219723 -0.51551986 -0.44621998 -0.33876628
-0.37589422 -0.48821265 -0.53408754 -0.24254954 -0.17740622 -0.27106982 -0.3297534 -0.5337603
-0.30325365 -0.29831362 -0.3096825 -0.11550412 -0.40522113 -0.39732856 -0.28711197 -0.19291338
-0.18337652 0.026379703 -0.096102625 -0.14983483 0.0021349106 -0.17665625 0.20148543 0.204043
0.1848119 -0.04753155 -0.17522568 0.13175905 0.08936818 0.121823415 -0.18241984 0.08984555
0.20196857 -0.1759853 0.022086902 0.10606805 -0.07615109 -0.10762384 -0.1434268 -0.097881325
0.06934286 -0.08341079 -0.047101058 0.0289943 -0.18330407 -0.40700188 -0.40411 -0.3812771
-0.3963179 -0.10319796 -0.31654218 -0.31348342 -0.1642399 -0.36937532 -0.17107148 -0.30920815
-0.10081389 -0.15455852 -0.36580983 -0.3350124 -0.17390841 -0.09937367 -0.21229926 -0.16395311
-0.17944461 -0.42528778 -0.27151507 -0.21167387 -0.36305752 -0.11439468 -0.10582078 -0.0009496156
-0.16576639 -0.16301423 -0.15831949 -0.16622876 -0.17560643 -0.14373627 -0.08992094 0.05419831
0.07460679 0.14112534 0.032027014 0.14210199 0.15082228 0.012417959 -0.073674485 -0.13956718
-0.063940614 -0.12441157 0.1524357 -0.007522357 0.043784488 0.090252705 0.040070586 0.16186415
-0.0039104247 -0.02190487 0.168717 0.19354482 0.12967536 0.047849298 -0.13710703 0.04623555
-0.11060033 -0.1484031 -0.04616041 -0.09079543 -0.037394516 0.10288413 -0.0036971127 0.11664259
0.037075743 -0.030022752 -0.12350719 0.0020946192 -0.018108908 -0.022181954 -0.10453126 -0.1578989
0.04530336 -0.17405899 -0.09939917 0.16189641 -0.1485224 0.19797489 0.13047093 -0.038572248
0.21496944 0.19317944 0.045323376 0.020578913 0.0017790901 -0.031874575 -0.015338923 -0.043672673
0.13294066 0.08543785 -0.055010878 -0.12341024 -0.07426765 -0.18104967 -0.11722377 -0.12399403
0.10561923 -0.0009239093 0.0039601056 -0.06915166 0.08153571 -0.064136624 0.08241157 0.045189478
0.17639787 -0.10787622 0.0706445 0.27112922 0.21642299 -0.0024483432 0.07568958 0.11038948
-0.08314173 0.06689956 -0.09324482 0.03017659 0.050156083 0.15191805 0.061079156 0.107323416
0.020018024 -0.021260247 0.12893674 0.21726282 0.21519639 -0.1476188 0.16472735 0.06760983
-0.07200597 0.005498233 0.090536 -0.037927657 -0.090049215 0.24574198 -0.02192533 0.20216188
-0.113151975 0.08336944 0.123121984 0.1784644 0.14637785 -0.118781105 0.18648297 0.032249328
00000000: 4f2e 873d 7b5d 44bb 3cbd 60bd 7737 47bd
00000010: 33d8 4b3b a122 433d b7c5 28bd 0ba3 ed3c
00000020: 1182 623e bedb 1c3e 0523 62bc 87c2 0e3e
00000030: 7155 493d f353 1a3e 4698 11be bf2d a53d
00000040: 822f bd3b 6a5a 893d 2681 08be 0b81 ffbd
00000050: c00c 83bc 4c75 8abd 5e42 58be ac96 1cbd
00000060: 98c8 43be d95e 393d 126e 183d b9ec 583e
00000070: 0d0c 4d3d d9a9 f83d ce89 8fbc 400e 5cbc
00000080: 91ad bebc 62c7 27be 747a 89bd 0e09 54bd
00000090: 0436 18be c249 643c 6580 ccbd e4fd 273e
000000a0: c7d4 2f3d 8bc3 953d 5622 873d 95cd bcbc
000000b0: 3484 fe3c 2763 aa3d e6f9 0e3e 8186 bfbd
000000c0: c28f 29be 0128 f3bd 948a 153e 8b54 4bbe
000000d0: bb75 57be 5ff2 d1bd 116d a2be 6287 e7be
000000e0: bcf9 95be 52bc d7be da8c 09bf 47b0 bfbe
000000f0: 9929 1abf 1cf9 03bf f276 e4be c672 adbe
00000100: 3575 c0be 02f7 f9be f6b9 08bf e85e 78be
00000110: faa9 35be aac9 8abe 70d5 a8be 84a4 08bf
00000120: 1044 9bbe 90bc 98be b48e 9ebe 6d8d ecbd
00000130: 2579 cfbe a66e cbbe 5700 93be 168b 45be
00000140: 0ec7 3bbe 3f1a d83c 74d1 c4bd 4d6e 19be
00000150: dbe9 0b3b 60e5 34be 3252 4e3e a6f0 503e
00000160: 553f 3d3e 71b0 42bd 5c6e 33be d8eb 063e
00000170: aa06 b73d 8e7e f93d 44cc 3abe f200 b83d
00000180: d9d0 4e3e 7e35 34be 97ef b43c 353a d93d
00000190: 1af5 9bbd e369 dcbd 7ade 12be 0176 c8bd
000001a0: a103 8e3d 47d3 aabd 0aed 40bd 7485 ed3c
000001b0: 10b4 3bbe 8d62 d0be 82e7 cebe c136 c3be
000001c0: 2eea cabe 7459 d3bd d111 a2be e680 a0be
000001d0: 812e 28be c31e bdbe 5d2d 2fbe 8850 9ebe
000001e0: 8377 cebd 9744 1ebe 6d4b bbbe bf86 abbe
000001f0: 0c15 32be 6c84 cbbd fa64 59be 53e3 27be
00000200: 54c0 37be 52bf d9be 0604 8bbe 09c1 58be
00000210: ade2 b9be c247 eabd 91b8 d8bd a0ef 78ba
00000220: aabe 29be 34ed 26be 811e 22be df37 2abe
00000230: 2cd2 33be 9a2f 13be 7828 b8bd 0cff 5d3d
00000240: 72cb 983d 2983 103e c22e 033d 2f83 113e
00000250: 2871 1a3e b274 4b3c a6e2 96bd b3ea 0ebe
00000260: 4cf3 82bd 7ecb febd 1b18 1c3e 1b7e f6bb
00000270: 5d57 333d 69d6 b83d 0e21 243d b7bf 253e
00000280: 0523 80bb d871 b3bc 26c4 2c3e 9d30 463e
00000290: 9ec9 043e a0fd 433d c965 0cbe 7d61 3d3d
000002a0: 6d82 e2bd fbf6 17be b312 3dbd f4f2 b9bd
000002b0: fe2a 19bd eab4 d23d 424b 72bb 4fe2 ee3d
000002c0: bcdc 173d 46f2 f5bc 56f1 fcbd e145 093b
000002d0: 2259 94bc eeb6 b5bc 7c14 d6bd 40b0 21be
000002e0: 0490 393d 853c 32be cb91 cbbd 2cc8 253e
000002f0: 4216 18be eeb9 4a3e 2c9a 053e effd 1dbd
00000300: f320 5c3e d5d0 453e 01a5 393d 1c95 a83c
00000310: 5c30 e93a ea8e 02bd 1b50 7bbc 1ee2 32bd
00000320: 9921 083e 0afa ae3d 1653 61bd 82be fcbd
00000330: a319 98bd 1665 39be 0413 f0bd 95f0 fdbd
00000340: e54e d83d 8132 72ba c6c3 813b 639f 8dbd
00000350: 32fc a63d 105a 83bd 66c7 a83d 9a18 393d
00000360: a5a1 343e 35ee dcbd 10ae 903d 73d1 8a3e
00000370: fd9d 5d3e 6274 20bb 2303 9b3d e113 e23d
00000380: 3646 aabd a302 893d 24f7 bebd e534 f73c
00000390: 7770 4d3d 6890 1b3e 232e 7a3d 61cc db3d
000003a0: d7fc a33c f829 aebc fe07 043e 257a 5e3e
000003b0: 715c 5c3e 6229 17be 49ae 283e 0677 8a3d
000003c0: de77 93bd 852a b43b f06a b93d 085a 1bbd
000003d0: b96b b8bd c9a3 7b3e c09c b3bc 8603 4f3e
000003e0: 39bc e7bd 99bd aa3d 6127 fc3d 5fbf 363e
000003f0: 13e4 153e 8243 f3bd 64f5 3e3e df17 043d

bias f4 [100]
0.047707662 0.13660783 -0.24648605 -0.030583035 -0.17602979 0.0168163 0.18656379 0.158989
-0.116213046 -0.049953744 -0.19577838 -0.16258577 -0.08128244 -0.081180386 -0.096634924 -0.061637007
-0.053414285 0.15230137 -0.040888492 0.112705685 -0.20915487 -0.08419591 0.17546499 0.08211653
0.13155192 0.08128983 -0.11644463 -0.0881899 0.036316533 0.04501985 -0.055493027 -0.020149767
0.13764715 0.19819719 0.16640069 -0.15507519 -0.15689793 -0.25237778 -0.15047705 0.005581078
-0.14024054 0.07878444 -0.19666313 0.066883475 -0.15350792 -0.07803084 0.18909696 -0.097641155
-0.056892574 0.1026062 -0.017828071 -0.04281749 0.09149363 -0.056719497 0.14165844 -0.021543967
-0.06324383 -0.17550907 -0.010181707 0.09150348 0.060478706 0.14863536 -0.049599804 0.09898186
0.04167616 -0.16723454 0.02539898 0.023639081 -0.07070693 0.1518537 0.004857913 0.06491406
0.024705468 -0.1737336 -0.18196458 -0.09923873 -0.22890401 0.0039386004 0.063643046 -0.11925925
0.10385012 -0.21793309 -0.13686831 -0.011213402 0.081816316 -0.21738899 0.07071549 0.08692951
-0.07365609 0.10823016 -0.23185898 -0.13422513 0.13813066 0.15922995 -0.08617104 -0.1859441
0.115448326 -0.14068142 -0.08461788 0.121774256
00000000: 1c69 433d ece2 0b3e d766 7cbe 4689 fabc
00000010: 2741 34be 56c2 893c 940a 3f3e 03ce 223e
00000020: 1b01 eebd 4c9c 4cbd 217a 48be e27c 26be
00000030: 6877 a6bd e741 a6bd 88e8 c5bd 1677 7cbd
00000040: f0c8 5abd e4f4 1b3e b17a 27bd 3dd2 e63d
00000050: b22c 56be e86e acbd 18ad 333e b62c a83d
00000060: 8cb5 063e 487b a63d 867a eebd e89c b4bd
00000070: a5c0 143d bc66 383d a84c 63bd 2011 a5bc
00000080: 60f3 0c3e 34f4 4a3e f164 2a3e 08cc 1ebe
00000090: daa9 20be a937 81be a816 1abe 7ae1 b63b
000000a0: 379b 0fbe bd59 a13d 0f62 49be 34fa 883d
000000b0: 2e31 1dbe a2ce 9fbd a2a2 413e 16f8 c7bd
000000c0: 3008 69bd 3323 d23d 2d0c 92bc 6461 2fbd
000000d0: 0361 bb3d b452 68bd e90e 113e f97c b0bc
000000e0: fb85 81bd a6b8 33be 2dd1 26bc 2d66 bb3d
000000f0: 85b8 773d de33 183e 2a29 4bbd 00b7 ca3d
00000100: 9fb4 2a3d 883f 2bbe 8611 d03c bfa6 c13c
00000110: cbce 90bd 897f 1b3e 212f 9f3b aaf1 843d
00000120: 1f63 ca3c 39e7 31be ec54 3abe ad3d cbbd
00000130: d065 6abe 600f 813b 4957 823d 323e f4bd
00000140: 5faf d43d da29 5fbe 3527 0cbe 6bb8 37bc
00000150: 508f a73d 389b 5ebe 48d3 903d 1908 b23d
00000160: 01d9 96bd c6a7 dd3d 716c 6dbe 5072 09be
00000170: 2072 0d3e 2d0d 233e 717a b0bd 2168 3ebe
00000180: 2c70 ec3d ca0e 10be 244c adbd c864 f93d

weight f4 [100]
1.0147289 1.0051776 1.007761 0.9927026 0.99348366 1.0069913 0.9851659 1.0090075
0.99350977 1.0458409 0.99441135 0.9963806 0.9999955 0.9989222 0.98112476 0.98902667
1.0 0.99770117 0.9877113 0.99583995 1.0520555 0.9997507 1.0001451 0.99608475
0.9808109 1.0120493 1.0314437 0.981457 0.99213773 1.0872278 1.0110806 1.0
1.0019532 0.98739 1.0006489 1.016358 0.9916149 1.0370955 1.0 1.0485238
1.0066645 0.9944032 0.9993639 0.9892526 0.9984361 0.9969306 0.9920031 0.9880822
1.0151899 0.9934232 0.99767596 0.9960995 0.97007304 1.0 1.0027783 0.99811333
1.0115362 1.0 1.0081307 0.97970283 0.99653435 0.98871243 0.9715637 0.98481184
0.9956607 0.99531645 0.98204356 0.9877032 0.9998188 0.98787135 1.0071404 0.9928338
1.0054435 0.9998642 0.99824053 1.0 0.9846859 0.99812156 0.9781175 1.0071279
0.9937535 0.99453175 0.9917843 0.9916792 1.007069 0.98992795 0.98240864 1.0151805
1.0120398 0.99306685 1.0189693 0.99110454 1.0010066 1.0002275 0.9878487 0.98803216
1.0092915 1.0 0.99100405 1.0059396
00000000: a3e2 813f a9a9 803f 50fe 803f c221 7e3f
00000010: f254 7e3f 17e5 803f d533 7c3f 2827 813f
00000020: a856 7e3f 1dde 853f be91 7e3f cd12 7f3f
00000030: b5ff 7f3f 5eb9 7f3f fe2a 7b3f da30 7d3f
00000040: 0000 803f 5869 7f3f a6da 7c3f 5eef 7e3f
00000050: c1a9 863f a9ef 7f3f c104 803f 69ff 7e3f
00000060: 6c16 7b3f d58a 813f 5906 843f c440 7b3f
00000070: bdfc 7d3f 482a 8b3f 176b 813f 0000 803f
00000080: 0140 803f 97c5 7c3f 4315 803f 0518 823f
00000090: 79da 7d3f 8cbf 843f 0000 803f 0736 863f
000000a0: 62da 803f 3591 7e3f 50d6 7f3f a93f 7d3f
000000b0: 8299 7f3f d836 7f3f eaf3 7d3f f4f2 7c3f
000000c0: bef1 813f fc50 7e3f b167 7f3f 6000 7f3f
000000d0: b556 783f 0000 803f 0a5b 803f 5b84 7f3f
000000e0: 057a 813f 0000 803f 6d0a 813f cecd 7a3f
000000f0: e01c 7f3f 421c 7d3f 66b8 783f a11c 7c3f
00000100: 9fe3 7e3f 0fcd 7e3f 3567 7b3f 1eda 7c3f
00000110: 20f4 7f3f 23e5 7c3f fae9 803f 5b2a 7e3f
00000120: 5fb2 803f 1af7 7f3f b18c 7f3f 0000 803f
00000130: 6014 7c3f e584 7f3f e965 7a3f 91e9 803f
00000140: a166 7e3f a299 7e3f 93e5 7d3f b0de 7d3f
00000150: a3e7 803f eb6b 7d3f 227f 7b3f 6ff1 813f
00000160: 858a 813f a139 7e3f 966d 823f 07b9 7d3f
00000170: fc20 803f 7407 803f a7e3 7c3f adef 7c3f
00000180: 7730 813f 0000 803f 71b2 7d3f a1c2 803f

bias f4 [100]
-0.024787867 0.008962937 -0.0342814 -0.008257834 -0.014275118 0.022992412 0.014261883 0.006708077
0.015903357 -0.014695032 -0.016342552 -0.0054950938 0.0058798464 0.0025253338 -0.0088073965 0.004491118
-0.010637548 -0.0055415416 -0.047459587 -0.0017592852 0.028488435 -0.0032725404 -0.009642802 -0.016370736
-0.014563703 0.003654163 0.0037960284 -0.03706951 0.009558758 0.02221087 0.025554214 0.0008359459
-0.010929677 0.009052348 -0.0014776298 -0.008114159 0.004127487 0.011257803 0.0037286535 0.007148743
-0.022464544 -0.01483534 0.011549045 0.00097272353 0.015257162 -0.01641888 0.005204181 0.003225738
0.017731005 -0.015838964 0.0046228482 0.0044098683 -0.028338473 -0.0144427 0.022802439 0.0025656954
-0.012132797 -0.016185038 0.0021449635 -0.03092633 0.0039030043 -0.03509911 0.025247801 0.016633503
-0.0155936945 -0.011677534 0.012827703 -0.013215104 0.001133715 -0.017677233 -0.008822274 0.014274256
-0.013340196 0.01786676 0.0056452635 0.011716344 0.029263344 -0.0064531113 -0.014392351 -0.0028267608
-0.03734373 -0.0072286194 0.026677057 -0.014991266 0.0071079317 -0.021066938 -0.0034317528 -0.007446101
-0.0018435523 -0.017124044 -0.0022282156 -0.0057368153 -0.016947 -0.005878884 0.006860755 -0.016849922
-0.017342126 -0.014813845 -0.011577759 -0.007795707
00000000: ed0f cbbc 48d9 123c a76a 0cbd de4b 07bc
00000010: 2fe2 69bc 955a bc3c acaa 693c 6ecf db3b
00000020: c247 823c 6ec3 70bc d1e0 85bc 3010 b4bb
00000030: baab c03b 1280 253b e64c 10bc 3a2a 933b
00000040: 1c49 2ebc d295 b5bb fc64 42bd d197 e6ba
00000050: 9460 e93c 1e78 56bb d8fc 1dbc ec1b 86bc
00000060: 999c 6ebc af7a 6f3b cac6 783b 33d6 17bd
00000070: 569c 1c3c 92f3 b53c 1257 d13c 6123 5b3a
00000080: 6312 33bc 4d50 143c 07ad c1ba 40f1 04bc
00000090: df3f 873b a672 383c 6d5c 743b 0140 ea3b
000000a0: 9007 b8bc ed0f 73bc 3538 3d3c 5ffe 7e3a
000000b0: 2df9 793c e380 86bc d687 aa3b e766 533b
000000c0: 9d40 913c b7c0 81bc 437b 973b a880 903b
000000d0: 1626 e8bc 13a1 6cbc 2ecc ba3c 3a25 283b
000000e0: a4c8 46bc 7c96 84bc 8492 0c3b 3759 fdbc
000000f0: 8cc9 7f3b 16c4 0fbd 7ad4 ce3c fc42 883c
00000100: b27c 7fbc 2153 3fbc 492b 523c 2a84 58bc
00000110: 2a99 943a d8cf 90bc 4d8b 10bc 92de 693c
00000120: d690 5abc 505d 923c e7fb b83b e9f5 3f3c
00000130: aeb9 ef3c 9f74 d3bb e5cd 6bbc 2d41 39bb
00000140: bdf5 18bd 0ede ecbb d889 da3c ed9d 75bc
00000150: a7e9 e83b 9294 acbc 42e7 60bb 6cfe f3bb
00000160: 5aa3 f1ba b947 8cbc 4107 12bb e5fb bbbb
00000170: 6fd4 8abc a7a3 c0bb 2fd0 e03b d908 8abc
00000180: 1311 8ebc c5b5 72bc a4b0 3dbc 2173 ffbb

running_mean f4 [100]
0.07072757 0.0022145293 4.2944325e-06 0.0019454797 7.910289e-06 0.03610138 0.0029653928 0.44583553
1.4593813 0.08212928 0.74606216 1.48939545e-08 3.262487e-08 9.393768e-09 2.3140319e-07 0.4252847
0.0 1.1823225 0.800792 2.6318535e-06 0.057420403 4.3132047e-07 0.45122167 0.6485536
1.0629234 0.0017527204 0.14866345 0.8211248 1.8367075 0.015963143 0.18380994 0.0
1.3082838 2.655844 0.57134753 0.07141809 8.418493e-08 0.0023642078 0.0 0.9308904
1.1009324 0.053772893 0.0019479708 0.027332017 0.0002964581 0.8079707 0.96463627 7.324706e-08
0.00739099 0.100260764 0.0032531312 0.015884662 1.1342378 0.0 0.0020343363 1.0209109
0.0018120062 0.0 0.0012774165 1.2291769 0.00079601014 0.9842861 0.0026166535 0.07999779
0.6078439 0.41895875 0.0020526268 0.70142686 6.2103735e-09 0.77301633 0.080260806 0.0020933896
0.9620182 0.00092213886 1.6641594e-07 0.0 0.0026139377 1.5763056 0.785827 0.45747915
0.51260364 0.273626 0.0030166951 0.66191345 0.041233875 2.2385303e-08 0.3127268 1.0906777
0.0009384987 0.5475089 0.12179935 0.0018831985 0.18321377 0.10291927 0.7430176 0.8748319
0.21041751 1.0698493e-08 1.4058944 0.001091166
00000000: 9ed9 903d a321 113b e518 9036 77ff fe3a
00000010: 6fb6 0437 0adf 133d 0957 423b 8e44 e43e
00000020: 02cd ba3f 6533 a83d eefd 3e3f 4ee0 7f32
00000030: 6d1f 0c33 3b62 2132 a077 7834 ebbe d93e
00000040: 0000 0000 5856 973f b400 4d3f e69e 3036
00000050: a831 6b3d 3c90 e734 8706 e73e 9c07 263f
00000060: e00d 883f 8abb e53a 3b3b 183e 3c35 523f
00000070: 3b19 eb3f 23c5 823c ac38 3c3e 0000 0000
00000080: d875 a73f 59f9 2940 d543 123f a643 923d
00000090: 28c9 b433 d3f0 1a3b 0000 0000 d54e 6e3f
000000a0: 5aeb 8c3f f740 5c3d 0e53 ff3a 65e7 df3c
000000b0: ef6d 9b39 2bd7 4e3f 67f2 763f ff4b 9d33
000000c0: 1e30 f23b 8455 cd3d 7c32 553b 8d20 823c
000000d0: b42e 913f 0000 0000 8052 053b 35ad 823f
000000e0: d780 ed3a 0000 0000 fc6e a73a ab55 9d3f
000000f0: 56ab 503a 2dfa 7b3f 297c 2b3b e2d5 a33d
00000100: a89b 1b3f c381 d63e 5d85 063b b690 333f
00000110: 0663 d531 66e4 453f c75f a43d 4031 093b
00000120: d346 763f b1bb 713a 11b0 3234 0000 0000
00000130: 994e 2b3b 62c4 c93f f52b 493f b53a ea3e
00000140: fe39 033f b518 8c3e bfb3 453b 2973 293f
00000150: dae4 283d cd49 c032 ba1d a03e 549b 8b3f
00000160: 9505 763a 8b29 0c3f f071 f93d a8d5 f63a
00000170: 649c 3b3e 57c7 d23d 6736 3e3f fcf4 5f3f
00000180: b077 573e 78cc 3732 59f4 b33f 7505 8f3a

running_var f4 [100]
0.003798709 0.0027628304 0.0017971272 0.0023119904 0.0017971504 0.010204601 0.0025115358 0.026552763
0.115990944 0.0038376942 0.047726378 0.0017970081 0.001797008 0.0017970081 0.0017970337 0.023998275
0.0017970073 0.10560635 0.010361601 0.001797106 0.003774865 0.0017970168 0.005650737 0.02265258
0.046303283 0.0025284165 0.008578532 0.032903973 0.21907301 0.004837062 0.010581177 0.0017970073
0.04689071 0.392785 0.023210676 0.0036771763 0.0017970222 0.0021783737 0.0017970073 0.015981428
0.10300479 0.003331091 0.0025655935 0.0037946056 0.0018241662 0.058416244 0.01719169 0.001797018
0.0035062458 0.02335762 0.0030065337 0.0054835994 0.04240337 0.0017970073 0.002199154 0.04870413
0.002643308 0.0017970073 0.0024030497 0.030899288 0.0019434373 0.03775263 0.0027353314 0.018873224
0.02749514 0.023447135 0.0023754623 0.04850507 0.0017970073 0.04619217 0.0055234167 0.002433093
0.022043483 0.0020310872 0.0017970222 0.0017970073 0.0021250134 0.12220464 0.037821125 0.023744134
0.013289158 0.014402567 0.0024761744 0.029475024 0.012301557 0.0017970089 0.014398459 0.0837651
0.0021594996 0.018009767 0.003917973 0.0021967548 0.041172896 0.0048537925 0.011949319 0.069752574
0.016999578 0.0017970073 0.085249215 0.0022712685
00000000: c3f3 783b 9a10 353b 958d eb3a c384 173b
00000010: 5c8e eb3a 3331 273c 9498 243b 2e85 d93c
00000020: a98c ed3d d381 7b3b bc7c 433d 9689 eb3a
00000030: 9589 eb3a 9689 eb3a 728a eb3a 0898 c43c
00000040: 8f89 eb3a 2448 d83d b4c3 293c df8c eb3a
00000050: ba63 773b e189 eb3a d129 b93b e791 b93c
00000060: 83a8 3d3d cab3 253b f98c 0c3c 51c6 063d
00000070: ad54 603e 3880 9e3b ac5c 2d3c 8f89 eb3a
00000080: 7910 403d 1e1b c93e 5124 be3c c8fc 703b
00000090: 0f8a eb3a 0cc3 0e3b 8f89 eb3a 7ceb 823c
000000a0: 2df4 d23d 6f4e 5a3b 8423 283b ebae 783b
000000b0: dc18 ef3a df45 6f3d 96d5 8c3c eb89 eb3a
000000c0: 0bc9 653b 7b58 bf3c 4409 453b c4af b33b
000000d0: 28af 2d3d 8f89 eb3a af1f 103b fb7d 473d
000000e0: 593b 2d3b 8f89 eb3a 7c7c 1d3b 8120 fd3c
000000f0: efba fe3a 80a2 1a3d 3f43 333b 059c 9a3c
00000100: 7d3d e13c 3514 c03c a5ad 1b3b 41ad 463d
00000110: 8f89 eb3a 0034 3d3d c7fd b43b 8774 1f3b
00000120: 8994 b43c fd1b 053b 0f8a eb3a 8f89 eb3a
00000130: cf43 0b3b 6d46 fa3d 53ea 1a3d 0f83 c23c
00000140: c5ba 593c bff8 6b3c 5047 223b 9b75 f13c
00000150: 788c 493c 9d89 eb3a 84e7 6b3c 098d ab3d
00000160: 6486 0d3b 3889 933c 5762 803b 6ef7 0f3b
00000170: e9a4 283d 900c 9f3b 14c7 433c 70da 8e3d
00000180: b342 8b3c 8f89 eb3a 2497 ae3d 90d9 143b

weight f4 [100, 100, 3, 3]
0.010534525 0.007628121 0.051470492 0.044110455 0.0496474 0.012545403 -0.010651504 0.000540262
0.057770345 0.00497295 -0.02621591 0.026312325 0.022855412 -0.033609964 0.02613369 -0.023256127
-0.011020681 -0.020433173 0.011656263 0.028720662 0.01911253 -0.016772933 0.00071428705 -0.016590208
0.014654783 0.016018879 -0.019080317 0.011119098 0.01510826 0.011190726 -0.020559112 0.01191308
0.023862556 0.011391379 0.04242666 -0.027335528 0.0064184163 -0.00614704 -0.0051870137 0.019410063
0.0016564232 -0.0037746688 -0.0023757666 0.0040022833 -0.015270732 0.0029437433 -0.00060166494 -0.0018790639
-0.029506646 -0.0030970583 0.0020591402 -0.011149263 0.0017826523 0.0030127284 0.01992765 0.016753633
0.009861335 0.0133406175 0.0066005155 -0.02353022 0.020956347 -0.004675377 0.017768178 0.04469803
0.018435163 0.019536471 -0.0070541324 0.022944659 -0.019251827 0.043303717 0.0015936894 0.029410545
-0.018468618 0.011564252 -0.034370493 -0.043853056 0.002394558 0.0033342785 -0.00045094924 0.016756857
-0.0265361 0.036306087 0.037232876 0.043144062 -0.013628522 0.0024136293 0.008779966 0.0014008438
0.010786681 0.019615497 0.03717825 -0.0061750966 0.0414671 0.04962552 0.020724725 0.027994586
0.037142444 0.023775801 -0.0006754601 0.019969909 -0.008069038 -0.0056253443 0.0033151682 0.012860156
0.020642178 -0.031245694 0.009788654 0.008665567 -0.0037609707 -0.032223202 0.007937076 -0.013211712
0.005757931 0.01540605 0.013048811 -0.0214923 -0.008981115 -0.01437352 0.023916373 0.031565636
0.031218065 0.003061065 -0.015574183 0.0021030838 0.031171298 0.021080678 0.009198896 -0.022164539
-0.024130825 -0.035221476 0.012178591 0.013073112 0.019162945 0.012459402 0.03162309 0.04459535
0.021256946 0.020993825 0.053006772 0.012668571 0.019352898 -0.0073720263 0.03267671 0.03528089
0.01666152 0.021405824 0.016529558 0.00508429 -0.0019725326 -0.016559817 0.029320598 -0.029130721
0.021118404 0.04146769 0.026301226 0.029885188 0.0045340955 0.01792981 0.03597081 0.026701747
0.034138646 -0.0076702596 -0.007907653 -0.044643056 -0.01215959 -0.0069726203 -0.032139502 0.0049845
-0.009153963 -0.014108126 -0.0020651862 -0.015581317 0.015125327 -0.024767753 -0.0026902691 -0.008840142
-0.0075920066 -0.025819402 6.5965934e-05 -0.01848175 0.030697491 0.020968402 0.038506605 0.017476942
0.033826295 0.0024318472 0.029760037 0.0051982454 0.034946676 0.010261176 -0.015677547 0.026626067
-0.0010855335 -0.028267346 -0.0016216367 -0.0037353188 -0.027227363 -0.008174754 -0.027296323 -0.00708409
-0.0043368945 -0.028902808 -0.005993332 -0.049001765 -0.052717675 -0.0362668 -0.043685455 0.025444157
0.010570584 -0.009883907 0.0089090085 -0.0022363362 0.0015796648 -0.022650557 0.019616334 0.025724232
0.0013907725 0.03586293 0.041051954 -0.004313518 0.008964913 0.0032286104 -0.023726687 -0.02823515
0.02027387 0.0007360503 -0.0037365705 0.012558073 0.011434224 -0.0014838147 -0.018107345 0.0050298837
0.025156155 0.016847882 -0.00463897 0.028507011 0.01701173 -0.0028692875 0.04541169 0.02782007
0.014751119 0.000971917 0.0073297797 0.01089302 -9.769602e-05 0.001809055 0.005675317 -0.012632699
0.031552088 0.00366648 -0.0060190433 0.005207294 -0.005502235 0.043732174 0.0405147 0.0010918523
00000000: 0099 2c3c 51f5 f93b b9d2 523d 2aad 343d
00000010: 125b 4b3d 3c8b 4d3c a583 2ebc 5ea0 0d3a
00000020: 99a0 6c3d 21f4 a23b c0c2 d6bc f28c d73c
00000030: 463b bb3c 9aaa 09bd 5216 d63c a283 bebc
00000040: 1690 34bc 7863 a7bc e9f9 3e3c 9847 eb3c
00000050: e191 9c3c 6467 89bc fe3e 3b3a 30e8 87bc
00000060: 9d1a 703c 063a 833c 534e 9cbc e12c 363c
00000070: a388 773c 4f59 373c 956b a8bc 142f 433c
00000080: 687b c33c e8a2 3a3c 94c7 2d3d c2ee dfbc
00000090: 9451 d23b 1c6d c9bb d3f7 a9bb da01 9f3c
000000a0: 571c d93a 6f60 77bb c0b2 1bbb 9625 833b
000000b0: 1832 7abc d1eb 403b 0db9 1dba ec4a f6ba
000000c0: ecb7 f1bc 04f8 4abb a4f2 063b 66ab 36bc
000000d0: e3a7 e93a 3271 453b 503f a33c ea3e 893c
000000e0: 7091 213c 9b92 5a3c 2349 d83b 73c2 c0bc
000000f0: a5ac ab3c e833 99bb 928e 913c 4815 373d
00000100: 5705 973c f30a a03c 5a26 e7bb 70f6 bb3c
00000110: 02b6 9dbc 3d5f 313d 58e3 d03a 62ee f03c
00000120: 804b 97bc fd77 3d3c 13c8 0cbd 439f 33bd
00000130: 04ee 1c3b e983 5a3b 626d ecb9 ad45 893c
00000140: 3c62 d9bc b1b5 143d 8081 183d d4b7 303d
00000150: 2a4a 5fbc fb2d 1e3b d9d9 0f3c 859c b73a
00000160: 9fba 303c aeb0 a03c 3848 183d 7758 cabb
00000170: 68d9 293d 2144 4b3d e6c6 a93c e754 e53c
00000180: ad22 183d 78c5 c23c 5c11 31ba ef97 a33c
00000190: 0034 04bc cf54 b8bb 4b43 593b 67b3 523c
000001a0: c919 a93c f8f6 ffbc 9760 203c 06fa 0d3c
000001b0: 9e7a 76bb 7afc 03bd 820a 023c f075 58bc
000001c0: 07ad bc3b a869 7c3c aeca 553c 9f10 b0bc
000001d0: 8725 13bc ea7e 6bbc 45ec c33c f84a 013d
000001e0: 07bd ff3c 269c 483b dc2a 7fbc e4d3 093b
000001f0: f35a ff3c 63b1 ac3c f7b6 163c 6892 b5bc
00000200: 02ae c5bc 6544 10bd b788 473c 9b30 563c
00000210: 9cfb 9c3c 8522 4c3c 3787 013d 9da9 363d
00000220: 0c23 ae3c 3efb ab3c a11d 593d d78f 4f3c
00000230: f889 9e3c 0a91 f1bb 04d8 053d b282 103d
00000240: bd7d 883c 445b af3c ff68 873c 1e9a a63b
00000250: 9b45 01bb 74a8 87bc c031 f03c 8da3 eebc
00000260: 8100 ad3c 06da 293d ab75 d73c c8d1 f43c
00000270: c092 943b 89e1 923c 2156 133d 9fbd da3c
00000280: f7d4 0b3d cd56 fbbb 1a8f 01bc a3db 36bd
00000290: 0439 47bc 947a e4bb b6a4 03bd 0455 a33b
000002a0: 81fa 15bc c525 67bc 1358 07bb c848 7fbc
000002b0: 38d0 773c bee5 cabc 3a4f 30bb 3ed6 10bc
000002c0: 5ec6 f8bb 3683 d3bc 3157 8a38 0a67 97bc
000002d0: 4e79 fb3c edc5 ab3c 1ab9 1d3d ce2b 8f3c
000002e0: 718d 0a3d a05f 1f3b 52cb f33c 0b56 aa3b
000002f0: 3f24 0f3d 7e1e 283c 336e 80bc e91e da3c
00000300: 7648 8eba ec90 e7bc 198d d4ba 40cc 74bb
00000310: eb0b dfbc 67ef 05bc 8a9c dfbc a721 e8bb
00000320: 821c 8ebb 95c5 ecbc b663 c4bb 13b6 48bd
00000330: 7dee 57bd 7f8c 14bd 85ef 32bd 4470 d03c
00000340: 3e30 2d3c 1cf0 21bc 17f7 113c 7f8f 12bb
00000350: c10c cf3a a98d b9bc 6fb2 a03c a0bb d23c
00000360: 954a b63a 02e5 123d 1826 283d 6958 8dbb
00000370: 92e1 123c 1897 533b 785e c2bc 674d e7bc
00000380: 6315 a63c 80f3 403a 40e1 74bb 60c0 4d3c
00000390: 9d56 3b3c 8f7c c2ba db55 94bc b9d1 a43b
000003a0: 4814 ce3c 9204 8a3c 8002 98bb 8987 e93c
000003b0: 2f5c 8b3c a80a 3cbb 9c01 3a3d eae6 e33c
000003c0: adae 713c 3fc8 7e3a a62e f03b a378 323c
000003d0: 27e2 ccb8 d01d ed3a 02f8 b93b 61f9 4ebc
000003e0: c33c 013d 5449 703b 653b c5bb f3a1 aa3b
000003f0: 184c b4bb 8220 333d bef2 253d 7c1c 8f3a

bias f4 [100]
0.051978447 0.035719063 -0.042717334 0.02643881 0.050955195 0.04575639 -0.025007319 0.035528928
0.028673291 -0.023572307 -0.0014841164 0.009848791 -0.030775785 -0.024396015 -0.029325308 0.029631438
0.00044237624 0.013463772 0.051535584 0.0064094923 0.022734981 0.0075187953 -0.018917393 0.0010068276
0.019915506 -0.006074649 0.06092054 0.0009876207 -0.01596826 -0.012987103 0.015786085 0.040990908
-0.04646776 -0.0032741928 0.029528217 0.018656347 -0.016116915 -0.014897025 0.01816317 0.033260427
-0.0058062784 -0.03463485 0.0147088235 0.0051874295 0.027860312 0.037197866 0.0030757538 -0.0088743
-0.023990756 0.021377949 -0.035977475 -0.005815454 0.006998659 0.03372355 -0.009467835 0.028612431
-0.018963194 0.019369517 0.02518515 -0.0068430523 -0.042030904 0.015221524 0.031845182 -0.021983366
-0.01603193 -0.00069901027 -0.0074486597 0.016287362 0.022164762 0.029189201 -0.0048677116 0.0045197015
0.06353465 0.033150703 0.037463527 -0.04008154 -0.019361053 0.02985062 0.033605345 -0.012277961
-0.0022931348 -0.020931035 0.010982922 0.0071072853 0.022444729 0.018365044 0.009971755 0.026448913
0.0042405613 0.0017353987 -0.012834684 -0.015263168 -0.017309166 -0.017950255 0.027056282 -0.021811899
0.0017468957 0.013005137 0.009989854 0.004284751
00000000: 5ae7 543d 274e 123d 5ff8 2ebd 3496 d83c
00000010: 65b6 503d 0d6b 3b3d 26dc ccbc c886 113d
00000020: 40e4 ea3c b61a c1bc af86 c2ba d35c 213c
00000030: 801d fcbc 27da c7bc a13b f0bc a1bd f23c
00000040: bcee e739 2797 5c3c fa16 533d b806 d23b
00000050: b63e ba3c 3a60 f63b a6f8 9abc 87f7 833a
00000060: d825 a33c d90d c7bb d187 793d 0d73 813a
00000070: decf 82bc dcc7 54bc d251 813c 15e6 273d
00000080: fa54 3ebd d793 56bb 29e5 f13c 32d5 983c
00000090: 9f07 84bc a712 74bc eeca 943c 163c 083d
000000a0: 9842 bebb 46dd 0dbd 47fd 703c 50fb a93b
000000b0: 4f3b e43c ca5c 183d 9692 493b 8365 11bc
000000c0: 4388 c4bc cf20 af3c 1e5d 13bd 908f bebb
000000d0: 0255 e53b b521 0a3d fa1e 1bbc 9e64 ea3c
000000e0: b358 9bbc d2ac 9e3c 1651 ce3c af3b e0bb
000000f0: 9928 2cbd b363 793c 1870 023d 7616 b4bc
00000100: 6555 83bc c93d 37ba e313 f4bb 136d 853c
00000110: e092 b53c 311e ef3c 5381 9fbb 011a 943b
00000120: 741e 823d 08c9 073d 5b73 193d 8a2c 24bd
00000130: 129b 9ebc 4a89 f43c c2a5 093d 8029 49bc
00000140: 6b48 16bb 9077 abbc b7f1 333c 3be4 e83b
00000150: 02de b73c 4a72 963c 9260 233c 64ab d83c
00000160: 68f4 8a3b 5176 e33a 9148 52bc 5e12 7abc
00000170: f4cb 8dbc 6a0c 93bc 23a5 dd3c deae b2bc
00000180: 18f8 e43a 8013 553c 7cac 233c 1967 8c3b

weight f4 [100]
1.0250112 0.97104335 0.9981053 1.0128778 1.0155461 1.0155007 0.98629713 1.0104824
1.004179 0.97504395 0.98266166 1.0115341 0.96215475 1.0252832 0.98339945 0.9733666
0.97936875 1.0325745 0.9989101 1.0244823 1.0348275 1.0218294 1.0019696 0.985178
1.0147485 1.0534275 1.0306792 1.0610974 0.99019974 0.96660215 1.0046008 0.99999094
1.0038307 1.0043931 1.0014309 0.99134904 0.98279387 0.9494579 0.99593 1.0169286
1.0070119 0.99645394 1.0284638 0.96030843 0.97653824 0.98967135 1.0057522 0.9509316
0.9777586 0.9485251 1.0114272 1.016847 1.0475703 0.9395779 1.016481 0.9466463
1.0117933 1.0484196 1.0305959 1.0315566 1.0086901 1.054222 0.97212297 1.0167477
0.9763974 0.9801334 1.0163817 1.0177292 0.9368398 1.0226046 1.0135134 1.0674168
0.99785304 0.9877238 1.0343283 0.97550476 0.9758913 1.0161855 1.0211679 0.9477828
1.0319031 1.0168524 0.98658967 0.95429206 0.99910736 0.97072953 1.020685 1.0324119
1.0014172 0.97778416 0.96832734 0.9876164 0.987085 0.9976244 1.0156598 1.0279802
0.97515136 0.9771783 0.9386183 1.0343138
00000000: 9133 833f 4c96 783f d483 7f3f fba5 813f
00000010: 6afd 813f edfb 813f f87d 7c3f 7d57 813f
00000020: f088 803f 7b9c 793f b78f 7b3f f379 813f
00000030: c64f 763f 7b3c 833f 11c0 7b3f 8e2e 793f
00000040: e9b7 7a3f 672b 843f 93b8 7f3f 3c22 833f
00000050: 3a75 843f 4ecb 823f 8a40 803f a034 7c3f
00000060: 47e3 813f b6d6 863f 4ced 833f 0ad2 873f
00000070: bb7d 7d3f 3d73 773f c296 803f 68ff 7f3f
00000080: 867d 803f f48f 803f e32e 803f 0dc9 7d3f
00000090: 6198 7b3f ac0f 733f 45f5 7e3f b72a 823f
000000a0: c4e5 803f 9b17 7f3f b4a4 833f c6d6 753f
000000b0: 69fe 793f 1a5b 7d3f 7dbc 803f 4170 733f
000000c0: 634e 7a3f 8ad2 723f 7276 813f 0b28 823f
000000d0: c916 863f 2d88 703f 0d1c 823f 6957 723f
000000e0: 7182 813f 9d32 863f 91ea 833f 0c0a 843f
000000f0: c21c 813f bff0 863f 0ddd 783f ca24 823f
00000100: 2ef5 793f 06ea 7a3f cc18 823f f344 823f
00000110: bcd4 6f3f b5e4 823f cfba 813f 1da1 883f
00000120: 4c73 7f3f 78db 7c3f df64 843f aeba 793f
00000130: 03d4 793f 5e12 823f a1b5 823f e5a1 723f
00000140: 6715 843f 3828 823f 2491 7c3f 7c4c 743f
00000150: 80c5 7f3f bb81 783f cea5 823f 1326 843f
00000160: 702e 803f 1050 7a3f 4de4 773f 6ed4 7c3f
00000170: 9ab1 7c3f 5064 7f3f 2401 823f db94 833f
00000180: 85a3 793f 5b28 7a3f 4a49 703f 6564 843f

bias f4 [100]
2.1502062e-06 6.155387e-07 7.873336e-06 -4.135149e-06 1.2650137e-05 -1.4131173e-05 -1.8692801e-05 -1.6467327e-05
-1.1835923e-06 -8.171265e-06 -4.197586e-06 1.7346222e-06 -2.9971764e-06 -1.4708539e-05 -8.194836e-06 -6.8276117e-06
-2.320865e-06 -4.9401074e-06 4.805891e-06 -4.776331e-06 -2.0496957e-06 -1.2810758e-05 9.529691e-08 -3.343707e-06
-1.726544e-05 1.3429979e-05 1.8866614e-05 -1.4014667e-05 -2.6164096e-06 -3.85234e-06 -8.805343e-06 6.1207957e-06
-6.4959763e-06 -5.018039e-06 -1.1790444e-05 -3.609791e-06 6.270632e-06 4.0192585e-06 5.165945e-06 1.2547532e-05
2.8071677e-06 -4.658425e-06 7.554083e-06 3.1938623e-07 1.3931155e-07 -1.6189086e-05 -9.4969955e-06 -3.6724978e-06
-8.833824e-06 3.8047137e-06 -1.3735496e-06 5.381946e-06 1.0517371e-05 -4.3741616e-06 -1.5976366e-05 -1.0037855e-05
-6.571864e-07 1.6346858e-06 1.9578483e-06 -4.9806627e-06 -1.53834e-05 1.0949417e-05 -9.927552e-06 -5.8336723e-06
-9.290541e-06 -2.7443741e-06 3.2644941e-06 -5.1177e-06 -6.787472e-06 1.4023716e-05 -1.0225652e-05 -9.497206e-06
1.569029e-05 -1.7073864e-06 1.622511e-05 -2.4632948e-06 -1.209421e-05 -9.66861e-06 -1.8161742e-05 -1.773397e-06
-6.8331633e-06 -1.07401e-05 -7.2833595e-06 -6.49369e-06 -7.16689e-06 -9.285355e-06 3.7194908e-07 -8.072982e-06
5.8327787e-06 6.91628e-06 -8.849281e-06 -1.15105595e-05 -1.50307715e-05 -4.0652303e-06 1.693932e-06 9.462298e-06
-5.0793456e-06 -4.168313e-06 -5.128948e-06 2.798269e-06
00000000: 434c 1036 7f3b 2535 b817 0437 a9c0 8ab6
00000010: ed3b 5437 ed14 6db7 7cce 9cb7 5123 8ab7
00000020: ecdb 9eb5 5117 09b7 fdd8 8cb6 2ad1 e835
00000030: 1923 49b6 b2c4 76b7 8d7c 09b7 bd18 e5b6
00000040: 28c0 1bb6 33c3 a5b6 4a42 a136 5f44 a0b6
00000050: 818d 09b6 c9ed 56b7 08a6 cc33 7364 60b6
00000060: 40d5 90b7 5251 6137 bf43 9e37 8920 6bb7
00000070: 9395 2fb6 5943 81b6 a9ba 13b7 3c61 cd36
00000080: 03f8 d9b6 a060 a8b6 92cf 45b7 bd3f 72b6
00000090: 5268 d236 2bdd 8636 2157 ad36 3d83 5237
000000a0: c662 3c36 914f 9cb6 1479 fd36 1c78 ab34
000000b0: ab95 1534 cccd 87b7 4955 1fb7 0875 76b6
000000c0: fc34 14b7 7c54 7f36 ce5a b8b5 9096 b436
000000d0: c473 3037 c3c5 92b6 fc04 86b7 4268 28b7
000000e0: 8169 30b5 6067 db35 9463 0336 911f a7b6
000000f0: 9a0b 81b7 63b3 3737 838e 26b7 ddbe c3b6
00000100: 92de 1bb7 fd2b 38b6 9513 5b36 b5b8 abb6
00000110: f1bf e3b6 6747 6b37 d78e 2bb7 3056 1fb7
00000120: a49e 8337 5a29 e5b5 291b 8837 154f 25b6
00000130: 3de8 4ab7 5d36 22b7 0b5a 98b7 7505 eeb5
00000140: 6d48 e5b6 6130 34b7 9563 f4b6 5fe4 d9b6
00000150: 1e7b f0b6 4cc8 1bb7 4bb0 c734 3271 07b7
00000160: 30b7 c336 6512 e836 5f77 14b7 7a1d 41b7
00000170: ac2c 7cb7 1068 88b6 0f5b e335 43c0 1e37
00000180: 3f6f aab6 89dd 8bb6 5419 acb6 e5c9 3b36

running_mean f4 [100]
1.7219425 0.40917295 0.3020661 1.1435561 1.6364572 1.0395252 0.5508353 1.1559176
1.8019245 1.4100572 1.4373728 1.9894707 0.47458765 6.175479 0.32537284 1.355151
0.784575 1.118547 1.4259889 1.1878318 1.0935484 3.4937677 1.5990766 1.6403576
0.30426493 2.664211 3.2866163 1.1082966 1.3237238 0.37208712 0.7465127 1.5453075
2.305543 1.3084868 0.5577316 1.6055183 0.95201945 0.24296127 1.0823281 2.360412
1.0033089 1.0098007 1.3924001 0.8523709 0.5506572 0.9039156 1.6895088 0.26615503
0.36983755 0.325491 1.0384243 1.9417773 2.931435 1.0000867 1.5328733 0.55694425
1.1978332 1.9836606 1.3483528 1.7959161 0.8274684 2.2434185 0.81374675 1.4008342
0.644567 0.4239449 1.4899468 1.2813745 0.6249251 2.4299579 1.6017199 1.9937568
3.6013548 0.48869506 2.6322854 0.32390958 0.61292344 1.3313371 0.56577075 0.4298513
0.40536213 3.5970345 0.4484395 0.44501668 0.40313727 0.8826277 1.2865347 1.3566353
0.36254036 2.7289805 0.7760501 0.65165234 1.3584536 0.82721025 0.5220632 0.40400797
1.6783077 0.33912575 0.48562345 2.136098
00000000: 9d68 dc3f 1e7f d13e 68a8 9a3e 0c60 923f
00000010: 6e77 d13f 290f 853f 8b03 0d3f 1cf5 933f
00000020: 76a5 e63f c17c b43f d5fb b73f faa6 fe3f
00000030: 27fd f23e 869d c540 4597 a63e 9775 ad3f
00000040: e8d9 483f 8c2c 8f3f ce86 b63f df0a 983f
00000050: 65f9 8b3f e499 5f40 8bae cc3f 3df7 d13f
00000060: 9dc8 9b3e 6f82 2a40 ec57 5240 aadc 8d3f
00000070: c86f a93f 3482 be3e 751b 3f3f a3cc c53f
00000080: 048e 1340 7f7c a73f 80c7 0e3f a081 cd3f
00000090: 8cb7 733f d7ca 783e ba89 8a3f fd10 1740
000000a0: 6d6c 803f 2641 813f 2b3a b23f fb34 5a3f
000000b0: dff7 0c3f 0367 673f d341 d83f 7945 883e
000000c0: 595b bd3e c2a6 a63e 16eb 843f 298c f83f
000000d0: a29c 3b40 d702 803f 3135 c43f e693 0e3f
000000e0: 9952 993f 97e8 fd3f d396 ac3f 94e0 e53f
000000f0: f8d4 533f 2b94 0f40 b551 503f 894e b33f
00000100: 5802 253f 4e0f d93e 94b6 be3f 1404 a43f
00000110: 17fb 1f3f 6e84 1b40 2805 cd3f 6c33 ff3f
00000120: 997c 6640 3d36 fa3e 5d77 2840 7ad7 a53e
00000130: 8de8 1c3f 4169 aa3f 5ad6 103f 7815 dc3e
00000140: a08b cf3e d035 6640 dd99 e53e 3ad9 e33e
00000150: 0268 ce3e e4f3 613f 2bad a43f 3aa6 ad3f
00000160: e49e b93e 9ea7 2e40 38ab 463f b0d2 263f
00000170: cfe1 ad3f 0dc4 533f efa5 053f 22da ce3e
00000180: c9d2 d63f e4a1 ad3e a3a3 f83e d4b5 0840

running_var f4 [100]
1.4305401 1.2917576 2.5640397 5.534603 0.94577175 5.0849004 1.3069193 5.127861
14.089795 8.629663 9.112884 1.4866108 2.5355966 154.81508 1.6263812 7.172005
0.2769603 5.035527 0.7306892 6.1975894 1.0038906 49.460003 10.75787 11.114425
0.72489053 2.679349 4.089836 4.6779666 8.187193 1.5064274 2.2770317 1.6981232
20.946602 7.7771034 1.345248 0.96026045 4.444068 1.156927 6.7887278 1.8816092
0.8875732 7.5109477 1.270494 0.4207392 2.921452 3.6355011 11.82119 1.0711045
1.5735657 0.9357153 1.5800986 18.914583 3.1860082 7.2514815 10.469033 0.68833643
6.0514326 1.3553236 7.9373574 12.867057 0.28578335 1.8981147 4.617718 7.7739444
0.53935933 1.3641876 0.86846447 6.8864603 0.3467997 2.4110763 9.888775 15.434236
4.294199 1.7792299 2.659332 1.2578778 0.96541816 7.3522997 1.2631527 1.7098821
1.0167383 50.856323 1.0790906 1.7737486 0.79269785 3.0649202 6.4479566 7.9898806
1.5238813 2.8110614 0.47363797 3.7262168 7.8717966 1.2744225 1.8243974 3.982391
11.563128 0.9479161 1.6776178 1.8845595
00000000: f01b b73f 5058 a53f 3a19 2440 781b b140
00000010: 191e 723f 81b7 a240 2249 a73f 7017 a440
00000020: cd6f 6141 1a13 0a41 5fce 1141 4349 be3f
00000030: 3747 2240 a9d0 1a43 422d d03f 1181 e540
00000040: becd 8d3e 0a23 a140 730e 3b3f a752 c640
00000050: 7d7f 803f 0bd7 4542 3c20 2c41 afd4 3141
00000060: 6d92 393f 747a 2b40 f0df 8240 e7b1 9540
00000070: befe 0241 9dd2 c03f e3ba 1140 1a5c d93f
00000080: a492 a741 08de f840 1631 ac3f a1d3 753f
00000090: ce35 8e40 2f16 943f 423d d940 92d8 f03f
000000a0: ff37 633f af59 f040 8c9f a23f 216b d73e
000000b0: 12f9 3a40 0dac 6840 9823 3d41 f419 893f
000000c0: 9a6a c93f 0a8b 6f3f ac40 ca3f 1151 9741
000000d0: 8fe7 4b40 230c e840 2981 2741 d136 303f
000000e0: 56a5 c140 3e7b ad3f d5fe fd40 77df 4d41
000000f0: 3252 923e 6cf5 f23f 59c4 9340 27c4 f840
00000100: 7413 0a3f b39d ae3f b053 5e3f e25d dc40
00000110: bb8f b13e 134f 1a40 6c38 1e41 a1f2 7641
00000120: 146a 8940 cebd e33f 7f32 2a40 2402 a13f
00000130: a525 773f 0a46 eb40 fdae a13f 6bdd da3f
00000140: 7b24 823f e06c 4b42 a41f 8a3f 320a e33f
00000150: 3fee 4a3f a727 4440 a955 ce40 1aad ff40
00000160: 8b0e c33f 6ee8 3340 ad80 f23e 567a 6e40
00000170: c2e5 fb40 4720 a33f db85 e93f 7fdf 7e40
00000180: 9302 3941 a1aa 723f 2ebc d63f 3f39 f13f

weight f4 [100, 100, 1, 1]
0.10241089 -0.035340868 -0.018630417 0.037458222 -0.03208628 -0.0383276 -0.05829518 -0.04128512
-0.06975465 -0.023490567 0.02034647 -0.023742428 -0.03283635 -0.04089888 0.03501017 0.06972988
0.039663244 -0.06408044 -0.032351363 -0.10755665 0.07071163 -0.08395748 -0.10346789 -0.064775005
0.053041596 -0.011123539 -0.0029096676 -0.10826786 -0.0252622 -0.046405785 0.058490504 -0.03234501
0.032270864 -0.021498533 -0.10429586 0.0026064054 -0.11866599 -0.054945983 -0.09096915 0.10074668
-0.04206762 0.0358964 0.103739 0.09190019 0.060080223 0.053380925 -0.11210253 -0.032269772
0.08634764 -0.049376488 -0.026070623 -0.11516926 -0.03458935 0.04251277 -0.10286135 0.015618574
-0.100866154 0.10447975 -0.080571964 -0.04939905 0.118072025 -0.031619005 -0.050175752 0.020013189
-0.01116453 -0.06731032 -0.013671925 0.025029065 0.06986732 0.016426612 0.037266385 0.021745455
0.0024551195 -0.07200286 -0.03582487 -0.043826446 0.104255304 -0.020385923 0.0152159035 -0.013519015
-0.06849309 0.054529127 0.06567025 -0.052274045 -0.007914173 0.007931582 -0.008116684 -0.10123843
0.030596301 0.04009377 -0.014449179 -0.04876377 -0.084255844 0.008900173 -0.08500771 0.041003358
0.017353147 0.05229234 -0.057711694 -0.067065425 -0.08477689 -0.053085055 0.009517441 -0.06718461
-0.034870878 -0.0006463895 0.011607743 0.035073794 0.06961216 -0.073329225 0.05977313 -0.032161195
0.09266359 0.08037525 -0.08711793 0.1660958 0.04072842 -0.08038061 0.013250395 0.04023475
0.047562458 0.011949647 0.12485218 0.09373215 -0.14767309 0.001100449 -0.08127315 0.03289129
-0.14391054 0.005757124 -0.022126077 0.007119852 -0.06685519 0.037538752 0.036635544 0.080392994
0.109617524 -0.036831588 0.09212549 -0.01188368 0.032876417 0.016650762 -0.03272588 -0.06368524
-0.051669855 -0.04421788 -0.06143021 0.18490642 -0.03926037 0.050141744 0.021862807 -0.075925
0.07502972 0.08741247 -0.06395573 -0.023829538 -0.028825425 0.024266893 0.09778814 -0.06719517
-0.02195529 -0.08175162 0.0652323 0.10150593 0.013664897 -0.013698141 -0.025720427 -0.053066403
0.0062506935 0.005784488 -0.038637474 0.071588345 -0.0025476443 -0.07752888 -0.03874083 -0.022295289
-0.020054113 -0.02260146 -0.023397217 -0.058828443 0.08238402 -0.0855185 0.0014728257 0.057506714
-0.10292795 -0.014352378 -0.09392441 -0.11341993 0.116564594 0.04993351 -0.049572088 -0.06407928
0.015330526 -0.022278639 0.029859232 -0.048287425 -0.07231004 0.16672996 0.010384723 -0.09527791
-0.07626486 0.040121492 0.0025655474 0.108695924 0.019617662 -0.027903544 -0.025766233 0.06943514
0.10881202 -0.032616824 0.10459141 -0.09824403 0.06902876 0.08675665 -0.031824943 -0.013304721
-0.021167101 0.08101926 -0.11829232 0.1094125 -0.043552127 -0.013095658 0.039133243 -0.034213465
0.01373351 -0.04482365 -0.07471671 0.050632894 0.029724725 0.057552718 -0.004642978 -0.061281722
0.004660587 -0.066856146 -0.031142471 0.023017732 0.0876373 -0.027278168 -0.034013335 -0.057320133
0.06469569 -0.052794367 -0.03348957 -0.068661846 0.06517293 -0.058110602 0.024416046 0.030688874
-0.028103137 0.0349263 -0.068940915 0.06166095 0.03399309 0.028733756 0.010370658 -0.020176712
00000000: cdbc d13d 96c1 10bd d19e 98bc cb6d 193d
00000010: e76c 03bd 67fd 1cbd edc6 6ebd 961a 29bd
00000020: 87db 8ebd 4a6f c0bc a4ad a63c 7b7f c2bc
00000030: 697f 06bd 9685 27bd d366 0f3d 8ace 8e3d
00000040: ed75 223d 9b3c 83bd dd82 04bd a946 dcbd
00000050: 42d1 903d e6f1 abbd f9e6 d3bd c2a8 84bd
00000060: 2542 593d 813f 36bc 1fb0 3ebb 8abb ddbd
00000070: acf2 cebc fe13 3ebd bd93 6f3d 347c 04bd
00000080: 742e 043d b11d b0bc 1199 d5bd 3ad0 2a3b
00000090: 2807 f3bd 0a0f 61bd 094e babd 4654 ce3d
000000a0: 194f 2cbd 1b08 133d 1d75 d43d 2b36 bc3d
000000b0: ae16 763d f5a5 5a3d 0396 e5bd 4f2d 04bd
000000c0: 08d7 b03d 003f 4abd 0f92 d5bc dcdd ebbd
000000d0: 90ad 0dbd df21 2e3d f9a8 d2bd 0ce5 7f3c
000000e0: ea92 cebd 7bf9 d53d ea02 a5bd a956 4abd
000000f0: bfcf f13d ee82 01bd 1785 4dbd b3f2 a33c
00000100: 6feb 36bc fed9 89bd 3600 60bc c109 cd3c
00000110: 9916 8f3d 1a91 863c a3a4 183d 8623 b23c
00000120: 12e6 203b 3c76 93bd 19bd 12bd 5c83 33bd
00000130: ce83 d53d 6100 a7bc 204c 793c dc7e 5dbc
00000140: 1b46 8cbd ef59 5f3d 207e 863d 4f1d 56bd
00000150: 73aa 01bc 77f3 013c d7fb 04bc 1856 cfbd
00000160: 18a5 fa3c 5d39 243d 40bc 6cbc 85bc 47bd
00000170: 548e acbd 08d2 113c 8618 aebd 23f3 273d
00000180: 3028 8e3c 7e30 563d 1963 6cbd 9959 89bd
00000190: 829f adbd b76f 59bd 0aef 1b3c 1698 89bd
000001a0: c4d4 0ebd 7772 29ba 672e 3e3c 8aa9 0f3d
000001b0: d290 8e3d a22d 96bd abd4 743d 75bb 03bd
000001c0: 69c6 bd3d c79b a43d e36a b2bd 0415 2a3e
000001d0: d8d2 263d 979e a4bd 2f18 593c 31cd 243d
000001e0: dad0 423d 74c8 433c 80b2 ff3d a4f6 bf3d
000001f0: 9d37 17be f13c 903a 8a72 a6bd 04b9 063d
00000200: 495d 13be 42a6 bc3b bf41 b5bc a64d e93b
00000210: 60eb 88bd 3cc2 193d 270f 163d 15a5 a43d
00000220: 277f e03d b8dc 16bd 4aac bc3d c4b3 42bc
00000230: 6ca9 063d 2e67 883c 930b 06bd 686d 82bd
00000240: c5a3 53bd cf1d 35bd 3e9e 7bbd 1c58 3d3e
00000250: 7bcf 20bd 6e61 4d3d a119 b33c 917e 9bbd
00000260: 2fa9 993d 4f05 b33d 39fb 82bd 2a36 c3bc
00000270: 4c23 ecbc 5dcb c63c 2645 c83d 9f9d 89bd
00000280: 95db b3bc 656d a7bd 8398 853d 57e2 cf3d
00000290: bbe2 5f3c 2b6e 60bc a5b3 d2bc 285c 59bd
000002a0: 9ed2 cc3b cd8b bd3b 5442 1ebd e99c 923d
000002b0: 61f6 26bb 76c7 9ebd b4ae 1ebd 9ca4 b6bc
000002c0: 8648 a4bc b226 b9bc 85ab bfbc 18f6 70bd
000002d0: f4b8 a83d 5324 afbd d40b c13a 298c 6b3d
000002e0: e4cb d2bd 3d26 6bbc 715b c0bd b548 e8bd
000002f0: 6bb9 ee3d 1587 4c3d 1a0c 4bbd ff3b 83bd
00000300: e32c 7b3c b181 b6bc 599b f43c 09c9 45bd
00000310: 4917 94bd 42bb 2a3e af24 2a3c 1121 c3bd
00000320: c030 9cbd 6f56 243d be22 283b f89b de3d
00000330: 38b5 a03c f995 e4bc b513 d3bc 0334 8e3d
00000340: d6d8 de3d 3899 05bd 0534 d63d 2a34 c9bd
00000350: f35e 8d3d 78ad b13d df5a 02bd 0bfc 59bc
00000360: a166 adbc 6ded a53d 3e43 f2bd a913 e03d
00000370: b763 32bd 2c8f 56bc 2e4a 203d 6b23 0cbd
00000380: 8402 613c 0199 37bd 1305 99bd 7064 4f3d
00000390: 4481 f33c 66bc 6b3d 1f24 98bb 8b02 7bbd
000003a0: d6b7 983b e0eb 88bd 7f1e ffbc af8f bc3c
000003b0: 2f7b b33d 7776 dfbc 9151 0bbd 84c8 6abd
000003c0: 2d7f 843d e83e 58bd 5c2c 09bd 959e 8cbd
000003d0: 6379 853d 6205 6ebd 2904 c83c 3c67 fb3c
000003e0: 8d38 e6bc e10e 0f3d e530 8dbd 3190 7c3d
000003f0: 573c 0b3d 0e63 eb3c b1e9 293c a249 a5bc

bias f4 [100]
0.03279744 0.05583327 -0.058335338 -0.053371232 0.059168104 -0.09554299 -0.09150022 0.039895233
0.09869188 0.042306773 0.04132153 0.014847107 0.03798685 0.0124151725 0.056837283 -0.006550077
0.09250087 0.08099861 -0.05758663 -0.0435348 -0.001148847 0.04417733 -0.01141294 -0.06595422
-0.018329818 -0.07435687 0.043353498 0.06593864 -0.042851496 0.080684476 0.06713422 -0.090049595
0.03283716 -0.006731875 -0.0655851 0.026680766 -0.08378161 -0.09181115 -0.052232593 -0.08741443
-0.08603408 0.018689917 -0.09101437 0.04470938 -0.01542672 -0.073709734 0.06428564 0.08879721
-0.09348873 0.056712545 0.011843113 -0.06674498 -0.017351113 0.09842321 0.030880164 -0.09281083
-0.021360146 -0.0044410885 0.020791119 -0.08142047 0.087082304 -0.07967705 0.09370646 -0.08654755
0.042838246 0.09201882 0.002495293 0.02121046 0.099814564 0.09331833 -0.08736789 0.08548136
-0.080690086 0.00622169 0.03188494 -0.003574675 0.063683726 0.023773432 0.0856576 0.050563633
-0.06417845 -0.06333988 0.055131618 -0.019227328 0.01343477 -0.052071046 -0.011460615 -0.02712147
0.062935285 0.018562999 0.035216894 -0.09505496 0.02398178 -0.046254404 -0.054912653 -0.098756075
-0.01547098 0.058152534 -0.0012896009 0.06001158
00000000: 9c56 063d 6db1 643d 09f1 6ebd cb9b 5abd
00000010: 415a 723d 0bac c3bd 7864 bbbd 2f69 233d
00000020: f81e ca3d de49 2d3d c440 293d 4841 733c
00000030: 1998 1b3d 0269 4b3c 36ce 683d 07a2 d6bb
00000040: 1971 bd3d 99e2 a53d f5df 6bbd 8c51 32bd
00000050: e994 96ba 4af3 343d 57fd 3abc 0213 87bd
00000060: 6a28 96bc 6a48 98bd 7093 313d d60a 873d
00000070: 0d85 2fbd e73d a53d aa7d 893d ec6b b8bd
00000080: 4280 063d 0f97 dcbb 7b51 86bd 9f91 da3c
00000090: b195 abbd 7c07 bcbd d8f1 55bd 5606 b3bd
000000a0: a332 b0bd 991b 993c be65 babd 2f21 373d
000000b0: 5ac0 7cbc 21f5 96bd 31a8 833d 50db b53d
000000c0: 0577 bfbd 6a4b 683d 9e09 423c 98b1 88bd
000000d0: ec23 8ebc 1c92 c93d 66f8 fc3c 9b13 bebd
000000e0: 79fb aebc 8d86 91bb 2352 aa3c c6bf a6bd
000000f0: 3558 b23d b92d a3bd 2ce9 bf3d d83f b1bd
00000100: 2877 2f3d 5d74 bc3d 1288 233b 8fc1 ad3c
00000110: 946b cc3d ae1d bf3d f0ed b2bd da10 af3d
00000120: d840 a5bd 52df cb3b c899 023d 1845 6abb
00000130: 9d6c 823d 80c0 c23c 406d af3d d01b 4f3d
00000140: fe6f 83bd 57b8 81bd b1d1 613d a182 9dbc
00000150: 821d 5c3c 7348 55bd 4ec5 3bbc d82d debc
00000160: 37e4 803d 6e11 983c 973f 103d 2dac c2bd
00000170: 7075 c43c 4275 3dbd 17ec 60bd a040 cabd
00000180: fe79 7dbc 5a31 6e3d d307 a9ba b4ce 753d

weight f4 [100]
0.83580685 1.1995713 0.9250183 0.87047356 0.98096514 0.8697781 0.85038143 5.339721
0.8695769 0.83786917 0.85678715 0.86307114 0.94853663 1.2414206 0.90151876 0.8327466
1.2820054 0.8552929 0.8639429 0.8507374 0.80283165 1.1342076 0.86807424 1.0208476
0.88002163 0.98455846 0.871616 1.4738374 0.882772 0.8679519 1.199624 0.85933304
0.8896979 0.84784794 0.8769408 0.8855193 0.87713116 0.87206495 0.96610004 0.8665367
0.8781868 0.8699978 0.8407456 0.8789617 0.8666488 0.8386399 0.8787271 0.8576498
0.95184 0.88794804 1.0139807 0.83986557 0.9933039 0.87069124 0.9517234 0.83779114
2.661423 1.0216064 0.88823324 0.825962 0.86831427 0.8928029 0.8315429 0.8776267
0.88900054 1.6926024 2.1556015 0.95442474 0.8136318 0.88449645 0.97578096 0.8606739
0.96900004 0.96955556 1.7218196 0.84269625 0.88716483 0.8743924 0.87397623 0.91160244
0.88112175 0.87181264 0.88849825 0.84439397 0.8554753 0.8645061 0.940883 0.8739347
0.88598853 0.98190916 1.3431146 0.8964287 1.3886669 0.8626602 0.8863539 2.5714803
0.8478402 0.9965516 0.8881362 1.4221747
00000000: 70f7 553f 8d8b 993f 00ce 6c3f 5bd7 5e3f
00000010: 8820 7b3f c7a9 5e3f 99b2 593f ffde aa40
00000020: 979c 5e3f 987e 563f 6756 5b3f 3bf2 5c3f
00000030: 4cd3 723f dfe6 9e3f efc9 663f e22e 553f
00000040: c118 a43f 7af4 5a3f 5d2b 5d3f edc9 593f
00000050: 6086 4d3f b72d 913f 1d3a 5e3f 22ab 823f
00000060: 1949 613f 060c 7c3f 3a22 5f3f b4a6 bc3f
00000070: 59fd 613f 1932 5e3f 478d 993f 40fd 5b3f
00000080: 3ec3 633f 900c 593f 317f 603f 65b1 623f
00000090: ab8b 603f a63f 5f3f 5552 773f 59d5 5d3f
000000a0: dad0 603f 2db8 5e3f 1b3b 573f a203 613f
000000b0: b2dc 5d3f 1bb1 563f 42f4 603f f08e 5b3f
000000c0: c9ab 733f 9050 633f 1fca 813f 6e01 573f
000000d0: 2a49 7e3f 9fe5 5e3f 25a4 733f 7b79 563f
000000e0: c154 2a40 00c4 823f 4163 633f 3f72 533f
000000f0: d849 5e3f bb8e 643f ffdf 543f 25ac 603f
00000100: 8a95 633f 32a7 d83f 60f5 0940 2e55 743f
00000110: 2c4a 503f 5c6e 623f c8cc 793f 2055 5c3f
00000120: 6310 783f cb34 783f 9664 dc3f f1ba 573f
00000130: 3c1d 633f 2ed8 5f3f e8bc 5f3f c75e 693f
00000140: 3291 613f 1d2f 5f3f 9f74 633f 342a 583f
00000150: 6e00 5b3f 4650 5d3f b5dd 703f 2fba 5f3f
00000160: 25d0 623f 665e 7b3f 2eeb ab3f 5a7c 653f
00000170: d6bf b13f 4dd7 5c3f 17e8 623f 2293 2440
00000180: 0e0c 593f 011e 7f3f e55c 633f d209 b63f
